##################################################################################################################################
Buerger Eq
Model: "model"
_________________________________________________________________
 Layer (type)                Output Shape              Param #   
=================================================================
 input_1 (InputLayer)        [(None, 3)]               0         
                                                                 
 dense (Dense)               (None, 20)                80        
                                                                 
 dense_1 (Dense)             (None, 20)                420       
                                                                 
 dense_2 (Dense)             (None, 20)                420       
                                                                 
 dense_3 (Dense)             (None, 20)                420       
                                                                 
 dense_4 (Dense)             (None, 20)                420       
                                                                 
 dense_5 (Dense)             (None, 20)                420       
                                                                 
 dense_6 (Dense)             (None, 20)                420       
                                                                 
 dense_7 (Dense)             (None, 20)                420       
                                                                 
 dense_8 (Dense)             (None, 2)                 42        
                                                                 
=================================================================
Total params: 3,062
Trainable params: 3,062
Non-trainable params: 0
_________________________________________________________________
None
##################################################################################################################################
Vortex Shedding
Model: "model_1"
_________________________________________________________________
 Layer (type)                Output Shape              Param #   
=================================================================
 input_2 (InputLayer)        [(None, 3)]               0         
                                                                 
 dense_9 (Dense)             (None, 20)                80        
                                                                 
 dense_10 (Dense)            (None, 20)                420       
                                                                 
 dense_11 (Dense)            (None, 20)                420       
                                                                 
 dense_12 (Dense)            (None, 20)                420       
                                                                 
 dense_13 (Dense)            (None, 3)                 63        
                                                                 
=================================================================
Total params: 1,403
Trainable params: 1,403
Non-trainable params: 0
_________________________________________________________________
None
##################################################################################################################################
Minimal Channel
Model: "model_2"
_________________________________________________________________
 Layer (type)                Output Shape              Param #   
=================================================================
 input_3 (InputLayer)        [(None, 4)]               0         
                                                                 
 dense_14 (Dense)            (None, 100)               500       
                                                                 
 dense_15 (Dense)            (None, 100)               10100     
                                                                 
 dense_16 (Dense)            (None, 100)               10100     
                                                                 
 dense_17 (Dense)            (None, 100)               10100     
                                                                 
 dense_18 (Dense)            (None, 100)               10100     
                                                                 
 dense_19 (Dense)            (None, 100)               10100     
                                                                 
 dense_20 (Dense)            (None, 100)               10100     
                                                                 
 dense_21 (Dense)            (None, 100)               10100     
                                                                 
 dense_22 (Dense)            (None, 100)               10100     
                                                                 
 dense_23 (Dense)            (None, 100)               10100     
                                                                 
 dense_24 (Dense)            (None, 4)                 404       
                                                                 
=================================================================
Total params: 91,804
Trainable params: 91,804
Non-trainable params: 0
_________________________________________________________________
None
##################################################################################################################################
Hot-wire measurement
Model: "model_3"
_________________________________________________________________
 Layer (type)                Output Shape              Param #   
=================================================================
 input_4 (InputLayer)        [(None, 2)]               0         
                                                                 
 dense_25 (Dense)            (None, 40)                120       
                                                                 
 dense_26 (Dense)            (None, 40)                1640      
                                                                 
 dense_27 (Dense)            (None, 40)                1640      
                                                                 
 dense_28 (Dense)            (None, 40)                1640      
                                                                 
 dense_29 (Dense)            (None, 6)                 246       
                                                                 
=================================================================
Total params: 5,286
Trainable params: 5,286
Non-trainable params: 0
_________________________________________________________________
None
