INFO: Start training for cyliner_nl4_nn20_Gn5.0
Model: "model"
_________________________________________________________________
 Layer (type)                Output Shape              Param #   
=================================================================
 input_1 (InputLayer)        [(None, 3)]               0         
                                                                 
 dense (Dense)               (None, 20)                80        
                                                                 
 dense_1 (Dense)             (None, 20)                420       
                                                                 
 dense_2 (Dense)             (None, 20)                420       
                                                                 
 dense_3 (Dense)             (None, 20)                420       
                                                                 
 dense_4 (Dense)             (None, 3)                 63        
                                                                 
=================================================================
Total params: 1,403
Trainable params: 1,403
Non-trainable params: 0
_________________________________________________________________
RUNNING THE L-BFGS-B CODE

           * * *

Machine precision = 2.220D-16
 N =         1403     M =           50

           * * *
…
