…
The MIN and MAX value for uu is 0.3850225464854589, 0.9903134195636786

The MIN and MAX value for vv is 0.16182369761532453, 0.47121423904837584

The MIN and MAX value for uv is 0.3263, 0.5952

(50, 2)
(13, 6)
Collection point = (78,) 
The model has been bulited
Model: "model"
_________________________________________________________________
 Layer (type)                Output Shape              Param #   
=================================================================
 input_1 (InputLayer)        [(None, 2)]               0         
                                                                 
 dense (Dense)               (None, 20)                60        
                                                                 
 dense_2 (Dense)             (None, 20)                420       
                                                                 
 dense_4 (Dense)             (None, 20)                420       
                                                                 
 dense_6 (Dense)             (None, 20)                420       
                                                                 
 dense_8 (Dense)             (None, 20)                420       
                                                                 
 dense_10 (Dense)            (None, 20)                420       
                                                                 
 dense_12 (Dense)            (None, 20)                420       
                                                                 
 dense_14 (Dense)            (None, 20)                420       
                                                                 
 dense_15 (Dense)            (None, 6)                 126       
                                                                 
=================================================================
Total params: 3,126
Trainable params: 3,126
Non-trainable params: 0
_________________________________________________________________
RUNNING THE L-BFGS-B CODE

           * * *

Machine precision = 2.220D-16
 N =         3126     M =           50

           * * *
…
